[surv label] at patient level
	min/avg/median/max time = 0.0/896.69/658.0/7248.0
	ratio of event = 0.35933806146572106
[surv label] to continuous
Loaded 486 slides with survival data
PeftModelForFeatureExtraction(
  (base_model): LoraModel(
    (model): CoCa(
      (text): TextTransformer(
        (token_embedding): Embedding(32007, 768)
        (transformer): Transformer(
          (resblocks): ModuleList(
            (0-11): 12 x ResidualAttentionBlock(
              (ln_1): LayerNorm((768,), eps=1e-05, elementwise_affine=True)
              (attn): MultiheadAttention(
                (out_proj): NonDynamicallyQuantizableLinear(in_features=768, out_features=768, bias=True)
              )
              (ls_1): Identity()
              (ln_2): LayerNorm((768,), eps=1e-05, elementwise_affine=True)
              (mlp): Sequential(
                (c_fc): Linear(in_features=768, out_features=3072, bias=True)
                (gelu): GELU(approximate='none')
                (c_proj): Linear(in_features=3072, out_features=768, bias=True)
              )
              (ls_2): Identity()
            )
          )
        )
        (ln_final): LayerNorm((768,), eps=1e-05, elementwise_affine=True)
      )
      (visual): VisualModel(
        (trunk): VisionTransformer(
          (patch_embed): PatchEmbed(
            (proj): lora.Conv2d(
              (base_layer): Conv2d(3, 768, kernel_size=(16, 16), stride=(16, 16))
              (lora_dropout): ModuleDict(
                (default): Dropout(p=0.1, inplace=False)
              )
              (lora_A): ModuleDict(
                (default): Conv2d(3, 8, kernel_size=(16, 16), stride=(16, 16), bias=False)
              )
              (lora_B): ModuleDict(
                (default): Conv2d(8, 768, kernel_size=(1, 1), stride=(1, 1), bias=False)
              )
              (lora_embedding_A): ParameterDict()
              (lora_embedding_B): ParameterDict()
              (lora_magnitude_vector): ModuleDict()
            )
            (norm): Identity()
          )
          (pos_drop): Dropout(p=0.0, inplace=False)
          (patch_drop): Identity()
          (norm_pre): Identity()
          (blocks): Sequential(
            (0): Block(
              (norm1): LayerNorm((768,), eps=1e-06, elementwise_affine=True)
              (attn): Attention(
                (qkv): lora.Linear(
                  (base_layer): Linear(in_features=768, out_features=2304, bias=True)
                  (lora_dropout): ModuleDict(
                    (default): Dropout(p=0.1, inplace=False)
                  )
                  (lora_A): ModuleDict(
                    (default): Linear(in_features=768, out_features=8, bias=False)
                  )
                  (lora_B): ModuleDict(
                    (default): Linear(in_features=8, out_features=2304, bias=False)
                  )
                  (lora_embedding_A): ParameterDict()
                  (lora_embedding_B): ParameterDict()
                  (lora_magnitude_vector): ModuleDict()
                )
                (q_norm): Identity()
                (k_norm): Identity()
                (attn_drop): Dropout(p=0.0, inplace=False)
                (proj): lora.Linear(
                  (base_layer): Linear(in_features=768, out_features=768, bias=True)
                  (lora_dropout): ModuleDict(
                    (default): Dropout(p=0.1, inplace=False)
                  )
                  (lora_A): ModuleDict(
                    (default): Linear(in_features=768, out_features=8, bias=False)
                  )
                  (lora_B): ModuleDict(
                    (default): Linear(in_features=8, out_features=768, bias=False)
                  )
                  (lora_embedding_A): ParameterDict()
                  (lora_embedding_B): ParameterDict()
                  (lora_magnitude_vector): ModuleDict()
                )
                (proj_drop): Dropout(p=0.0, inplace=False)
              )
              (ls1): Identity()
              (drop_path1): Identity()
              (norm2): LayerNorm((768,), eps=1e-06, elementwise_affine=True)
              (mlp): Mlp(
                (fc1): Linear(in_features=768, out_features=3072, bias=True)
                (act): GELU(approximate='none')
                (drop1): Dropout(p=0.0, inplace=False)
                (norm): Identity()
                (fc2): Linear(in_features=3072, out_features=768, bias=True)
                (drop2): Dropout(p=0.0, inplace=False)
              )
              (ls2): Identity()
              (drop_path2): Identity()
            )
            (1): Block(
              (norm1): LayerNorm((768,), eps=1e-06, elementwise_affine=True)
              (attn): Attention(
                (qkv): lora.Linear(
                  (base_layer): Linear(in_features=768, out_features=2304, bias=True)
                  (lora_dropout): ModuleDict(
                    (default): Dropout(p=0.1, inplace=False)
                  )
                  (lora_A): ModuleDict(
                    (default): Linear(in_features=768, out_features=8, bias=False)
                  )
                  (lora_B): ModuleDict(
                    (default): Linear(in_features=8, out_features=2304, bias=False)
                  )
                  (lora_embedding_A): ParameterDict()
                  (lora_embedding_B): ParameterDict()
                  (lora_magnitude_vector): ModuleDict()
                )
                (q_norm): Identity()
                (k_norm): Identity()
                (attn_drop): Dropout(p=0.0, inplace=False)
                (proj): lora.Linear(
                  (base_layer): Linear(in_features=768, out_features=768, bias=True)
                  (lora_dropout): ModuleDict(
                    (default): Dropout(p=0.1, inplace=False)
                  )
                  (lora_A): ModuleDict(
                    (default): Linear(in_features=768, out_features=8, bias=False)
                  )
                  (lora_B): ModuleDict(
                    (default): Linear(in_features=8, out_features=768, bias=False)
                  )
                  (lora_embedding_A): ParameterDict()
                  (lora_embedding_B): ParameterDict()
                  (lora_magnitude_vector): ModuleDict()
                )
                (proj_drop): Dropout(p=0.0, inplace=False)
              )
              (ls1): Identity()
              (drop_path1): Identity()
              (norm2): LayerNorm((768,), eps=1e-06, elementwise_affine=True)
              (mlp): Mlp(
                (fc1): Linear(in_features=768, out_features=3072, bias=True)
                (act): GELU(approximate='none')
                (drop1): Dropout(p=0.0, inplace=False)
                (norm): Identity()
                (fc2): Linear(in_features=3072, out_features=768, bias=True)
                (drop2): Dropout(p=0.0, inplace=False)
              )
              (ls2): Identity()
              (drop_path2): Identity()
            )
            (2): Block(
              (norm1): LayerNorm((768,), eps=1e-06, elementwise_affine=True)
              (attn): Attention(
                (qkv): lora.Linear(
                  (base_layer): Linear(in_features=768, out_features=2304, bias=True)
                  (lora_dropout): ModuleDict(
                    (default): Dropout(p=0.1, inplace=False)
                  )
                  (lora_A): ModuleDict(
                    (default): Linear(in_features=768, out_features=8, bias=False)
                  )
                  (lora_B): ModuleDict(
                    (default): Linear(in_features=8, out_features=2304, bias=False)
                  )
                  (lora_embedding_A): ParameterDict()
                  (lora_embedding_B): ParameterDict()
                  (lora_magnitude_vector): ModuleDict()
                )
                (q_norm): Identity()
                (k_norm): Identity()
                (attn_drop): Dropout(p=0.0, inplace=False)
                (proj): lora.Linear(
                  (base_layer): Linear(in_features=768, out_features=768, bias=True)
                  (lora_dropout): ModuleDict(
                    (default): Dropout(p=0.1, inplace=False)
                  )
                  (lora_A): ModuleDict(
                    (default): Linear(in_features=768, out_features=8, bias=False)
                  )
                  (lora_B): ModuleDict(
                    (default): Linear(in_features=8, out_features=768, bias=False)
                  )
                  (lora_embedding_A): ParameterDict()
                  (lora_embedding_B): ParameterDict()
                  (lora_magnitude_vector): ModuleDict()
                )
                (proj_drop): Dropout(p=0.0, inplace=False)
              )
              (ls1): Identity()
              (drop_path1): Identity()
              (norm2): LayerNorm((768,), eps=1e-06, elementwise_affine=True)
              (mlp): Mlp(
                (fc1): Linear(in_features=768, out_features=3072, bias=True)
                (act): GELU(approximate='none')
                (drop1): Dropout(p=0.0, inplace=False)
                (norm): Identity()
                (fc2): Linear(in_features=3072, out_features=768, bias=True)
                (drop2): Dropout(p=0.0, inplace=False)
              )
              (ls2): Identity()
              (drop_path2): Identity()
            )
            (3): Block(
              (norm1): LayerNorm((768,), eps=1e-06, elementwise_affine=True)
              (attn): Attention(
                (qkv): lora.Linear(
                  (base_layer): Linear(in_features=768, out_features=2304, bias=True)
                  (lora_dropout): ModuleDict(
                    (default): Dropout(p=0.1, inplace=False)
                  )
                  (lora_A): ModuleDict(
                    (default): Linear(in_features=768, out_features=8, bias=False)
                  )
                  (lora_B): ModuleDict(
                    (default): Linear(in_features=8, out_features=2304, bias=False)
                  )
                  (lora_embedding_A): ParameterDict()
                  (lora_embedding_B): ParameterDict()
                  (lora_magnitude_vector): ModuleDict()
                )
                (q_norm): Identity()
                (k_norm): Identity()
                (attn_drop): Dropout(p=0.0, inplace=False)
                (proj): lora.Linear(
                  (base_layer): Linear(in_features=768, out_features=768, bias=True)
                  (lora_dropout): ModuleDict(
                    (default): Dropout(p=0.1, inplace=False)
                  )
                  (lora_A): ModuleDict(
                    (default): Linear(in_features=768, out_features=8, bias=False)
                  )
                  (lora_B): ModuleDict(
                    (default): Linear(in_features=8, out_features=768, bias=False)
                  )
                  (lora_embedding_A): ParameterDict()
                  (lora_embedding_B): ParameterDict()
                  (lora_magnitude_vector): ModuleDict()
                )
                (proj_drop): Dropout(p=0.0, inplace=False)
              )
              (ls1): Identity()
              (drop_path1): Identity()
              (norm2): LayerNorm((768,), eps=1e-06, elementwise_affine=True)
              (mlp): Mlp(
                (fc1): Linear(in_features=768, out_features=3072, bias=True)
                (act): GELU(approximate='none')
                (drop1): Dropout(p=0.0, inplace=False)
                (norm): Identity()
                (fc2): Linear(in_features=3072, out_features=768, bias=True)
                (drop2): Dropout(p=0.0, inplace=False)
              )
              (ls2): Identity()
              (drop_path2): Identity()
            )
            (4): Block(
              (norm1): LayerNorm((768,), eps=1e-06, elementwise_affine=True)
              (attn): Attention(
                (qkv): lora.Linear(
                  (base_layer): Linear(in_features=768, out_features=2304, bias=True)
                  (lora_dropout): ModuleDict(
                    (default): Dropout(p=0.1, inplace=False)
                  )
                  (lora_A): ModuleDict(
                    (default): Linear(in_features=768, out_features=8, bias=False)
                  )
                  (lora_B): ModuleDict(
                    (default): Linear(in_features=8, out_features=2304, bias=False)
                  )
                  (lora_embedding_A): ParameterDict()
                  (lora_embedding_B): ParameterDict()
                  (lora_magnitude_vector): ModuleDict()
                )
                (q_norm): Identity()
                (k_norm): Identity()
                (attn_drop): Dropout(p=0.0, inplace=False)
                (proj): lora.Linear(
                  (base_layer): Linear(in_features=768, out_features=768, bias=True)
                  (lora_dropout): ModuleDict(
                    (default): Dropout(p=0.1, inplace=False)
                  )
                  (lora_A): ModuleDict(
                    (default): Linear(in_features=768, out_features=8, bias=False)
                  )
                  (lora_B): ModuleDict(
                    (default): Linear(in_features=8, out_features=768, bias=False)
                  )
                  (lora_embedding_A): ParameterDict()
                  (lora_embedding_B): ParameterDict()
                  (lora_magnitude_vector): ModuleDict()
                )
                (proj_drop): Dropout(p=0.0, inplace=False)
              )
              (ls1): Identity()
              (drop_path1): Identity()
              (norm2): LayerNorm((768,), eps=1e-06, elementwise_affine=True)
              (mlp): Mlp(
                (fc1): Linear(in_features=768, out_features=3072, bias=True)
                (act): GELU(approximate='none')
                (drop1): Dropout(p=0.0, inplace=False)
                (norm): Identity()
                (fc2): Linear(in_features=3072, out_features=768, bias=True)
                (drop2): Dropout(p=0.0, inplace=False)
              )
              (ls2): Identity()
              (drop_path2): Identity()
            )
            (5): Block(
              (norm1): LayerNorm((768,), eps=1e-06, elementwise_affine=True)
              (attn): Attention(
                (qkv): lora.Linear(
                  (base_layer): Linear(in_features=768, out_features=2304, bias=True)
                  (lora_dropout): ModuleDict(
                    (default): Dropout(p=0.1, inplace=False)
                  )
                  (lora_A): ModuleDict(
                    (default): Linear(in_features=768, out_features=8, bias=False)
                  )
                  (lora_B): ModuleDict(
                    (default): Linear(in_features=8, out_features=2304, bias=False)
                  )
                  (lora_embedding_A): ParameterDict()
                  (lora_embedding_B): ParameterDict()
                  (lora_magnitude_vector): ModuleDict()
                )
                (q_norm): Identity()
                (k_norm): Identity()
                (attn_drop): Dropout(p=0.0, inplace=False)
                (proj): lora.Linear(
                  (base_layer): Linear(in_features=768, out_features=768, bias=True)
                  (lora_dropout): ModuleDict(
                    (default): Dropout(p=0.1, inplace=False)
                  )
                  (lora_A): ModuleDict(
                    (default): Linear(in_features=768, out_features=8, bias=False)
                  )
                  (lora_B): ModuleDict(
                    (default): Linear(in_features=8, out_features=768, bias=False)
                  )
                  (lora_embedding_A): ParameterDict()
                  (lora_embedding_B): ParameterDict()
                  (lora_magnitude_vector): ModuleDict()
                )
                (proj_drop): Dropout(p=0.0, inplace=False)
              )
              (ls1): Identity()
              (drop_path1): Identity()
              (norm2): LayerNorm((768,), eps=1e-06, elementwise_affine=True)
              (mlp): Mlp(
                (fc1): Linear(in_features=768, out_features=3072, bias=True)
                (act): GELU(approximate='none')
                (drop1): Dropout(p=0.0, inplace=False)
                (norm): Identity()
                (fc2): Linear(in_features=3072, out_features=768, bias=True)
                (drop2): Dropout(p=0.0, inplace=False)
              )
              (ls2): Identity()
              (drop_path2): Identity()
            )
            (6): Block(
              (norm1): LayerNorm((768,), eps=1e-06, elementwise_affine=True)
              (attn): Attention(
                (qkv): lora.Linear(
                  (base_layer): Linear(in_features=768, out_features=2304, bias=True)
                  (lora_dropout): ModuleDict(
                    (default): Dropout(p=0.1, inplace=False)
                  )
                  (lora_A): ModuleDict(
                    (default): Linear(in_features=768, out_features=8, bias=False)
                  )
                  (lora_B): ModuleDict(
                    (default): Linear(in_features=8, out_features=2304, bias=False)
                  )
                  (lora_embedding_A): ParameterDict()
                  (lora_embedding_B): ParameterDict()
                  (lora_magnitude_vector): ModuleDict()
                )
                (q_norm): Identity()
                (k_norm): Identity()
                (attn_drop): Dropout(p=0.0, inplace=False)
                (proj): lora.Linear(
                  (base_layer): Linear(in_features=768, out_features=768, bias=True)
                  (lora_dropout): ModuleDict(
                    (default): Dropout(p=0.1, inplace=False)
                  )
                  (lora_A): ModuleDict(
                    (default): Linear(in_features=768, out_features=8, bias=False)
                  )
                  (lora_B): ModuleDict(
                    (default): Linear(in_features=8, out_features=768, bias=False)
                  )
                  (lora_embedding_A): ParameterDict()
                  (lora_embedding_B): ParameterDict()
                  (lora_magnitude_vector): ModuleDict()
                )
                (proj_drop): Dropout(p=0.0, inplace=False)
              )
              (ls1): Identity()
              (drop_path1): Identity()
              (norm2): LayerNorm((768,), eps=1e-06, elementwise_affine=True)
              (mlp): Mlp(
                (fc1): Linear(in_features=768, out_features=3072, bias=True)
                (act): GELU(approximate='none')
                (drop1): Dropout(p=0.0, inplace=False)
                (norm): Identity()
                (fc2): Linear(in_features=3072, out_features=768, bias=True)
                (drop2): Dropout(p=0.0, inplace=False)
              )
              (ls2): Identity()
              (drop_path2): Identity()
            )
            (7): Block(
              (norm1): LayerNorm((768,), eps=1e-06, elementwise_affine=True)
              (attn): Attention(
                (qkv): lora.Linear(
                  (base_layer): Linear(in_features=768, out_features=2304, bias=True)
                  (lora_dropout): ModuleDict(
                    (default): Dropout(p=0.1, inplace=False)
                  )
                  (lora_A): ModuleDict(
                    (default): Linear(in_features=768, out_features=8, bias=False)
                  )
                  (lora_B): ModuleDict(
                    (default): Linear(in_features=8, out_features=2304, bias=False)
                  )
                  (lora_embedding_A): ParameterDict()
                  (lora_embedding_B): ParameterDict()
                  (lora_magnitude_vector): ModuleDict()
                )
                (q_norm): Identity()
                (k_norm): Identity()
                (attn_drop): Dropout(p=0.0, inplace=False)
                (proj): lora.Linear(
                  (base_layer): Linear(in_features=768, out_features=768, bias=True)
                  (lora_dropout): ModuleDict(
                    (default): Dropout(p=0.1, inplace=False)
                  )
                  (lora_A): ModuleDict(
                    (default): Linear(in_features=768, out_features=8, bias=False)
                  )
                  (lora_B): ModuleDict(
                    (default): Linear(in_features=8, out_features=768, bias=False)
                  )
                  (lora_embedding_A): ParameterDict()
                  (lora_embedding_B): ParameterDict()
                  (lora_magnitude_vector): ModuleDict()
                )
                (proj_drop): Dropout(p=0.0, inplace=False)
              )
              (ls1): Identity()
              (drop_path1): Identity()
              (norm2): LayerNorm((768,), eps=1e-06, elementwise_affine=True)
              (mlp): Mlp(
                (fc1): Linear(in_features=768, out_features=3072, bias=True)
                (act): GELU(approximate='none')
                (drop1): Dropout(p=0.0, inplace=False)
                (norm): Identity()
                (fc2): Linear(in_features=3072, out_features=768, bias=True)
                (drop2): Dropout(p=0.0, inplace=False)
              )
              (ls2): Identity()
              (drop_path2): Identity()
            )
            (8): Block(
              (norm1): LayerNorm((768,), eps=1e-06, elementwise_affine=True)
              (attn): Attention(
                (qkv): lora.Linear(
                  (base_layer): Linear(in_features=768, out_features=2304, bias=True)
                  (lora_dropout): ModuleDict(
                    (default): Dropout(p=0.1, inplace=False)
                  )
                  (lora_A): ModuleDict(
                    (default): Linear(in_features=768, out_features=8, bias=False)
                  )
                  (lora_B): ModuleDict(
                    (default): Linear(in_features=8, out_features=2304, bias=False)
                  )
                  (lora_embedding_A): ParameterDict()
                  (lora_embedding_B): ParameterDict()
                  (lora_magnitude_vector): ModuleDict()
                )
                (q_norm): Identity()
                (k_norm): Identity()
                (attn_drop): Dropout(p=0.0, inplace=False)
                (proj): lora.Linear(
                  (base_layer): Linear(in_features=768, out_features=768, bias=True)
                  (lora_dropout): ModuleDict(
                    (default): Dropout(p=0.1, inplace=False)
                  )
                  (lora_A): ModuleDict(
                    (default): Linear(in_features=768, out_features=8, bias=False)
                  )
                  (lora_B): ModuleDict(
                    (default): Linear(in_features=8, out_features=768, bias=False)
                  )
                  (lora_embedding_A): ParameterDict()
                  (lora_embedding_B): ParameterDict()
                  (lora_magnitude_vector): ModuleDict()
                )
                (proj_drop): Dropout(p=0.0, inplace=False)
              )
              (ls1): Identity()
              (drop_path1): Identity()
              (norm2): LayerNorm((768,), eps=1e-06, elementwise_affine=True)
              (mlp): Mlp(
                (fc1): Linear(in_features=768, out_features=3072, bias=True)
                (act): GELU(approximate='none')
                (drop1): Dropout(p=0.0, inplace=False)
                (norm): Identity()
                (fc2): Linear(in_features=3072, out_features=768, bias=True)
                (drop2): Dropout(p=0.0, inplace=False)
              )
              (ls2): Identity()
              (drop_path2): Identity()
            )
            (9): Block(
              (norm1): LayerNorm((768,), eps=1e-06, elementwise_affine=True)
              (attn): Attention(
                (qkv): lora.Linear(
                  (base_layer): Linear(in_features=768, out_features=2304, bias=True)
                  (lora_dropout): ModuleDict(
                    (default): Dropout(p=0.1, inplace=False)
                  )
                  (lora_A): ModuleDict(
                    (default): Linear(in_features=768, out_features=8, bias=False)
                  )
                  (lora_B): ModuleDict(
                    (default): Linear(in_features=8, out_features=2304, bias=False)
                  )
                  (lora_embedding_A): ParameterDict()
                  (lora_embedding_B): ParameterDict()
                  (lora_magnitude_vector): ModuleDict()
                )
                (q_norm): Identity()
                (k_norm): Identity()
                (attn_drop): Dropout(p=0.0, inplace=False)
                (proj): lora.Linear(
                  (base_layer): Linear(in_features=768, out_features=768, bias=True)
                  (lora_dropout): ModuleDict(
                    (default): Dropout(p=0.1, inplace=False)
                  )
                  (lora_A): ModuleDict(
                    (default): Linear(in_features=768, out_features=8, bias=False)
                  )
                  (lora_B): ModuleDict(
                    (default): Linear(in_features=8, out_features=768, bias=False)
                  )
                  (lora_embedding_A): ParameterDict()
                  (lora_embedding_B): ParameterDict()
                  (lora_magnitude_vector): ModuleDict()
                )
                (proj_drop): Dropout(p=0.0, inplace=False)
              )
              (ls1): Identity()
              (drop_path1): Identity()
              (norm2): LayerNorm((768,), eps=1e-06, elementwise_affine=True)
              (mlp): Mlp(
                (fc1): Linear(in_features=768, out_features=3072, bias=True)
                (act): GELU(approximate='none')
                (drop1): Dropout(p=0.0, inplace=False)
                (norm): Identity()
                (fc2): Linear(in_features=3072, out_features=768, bias=True)
                (drop2): Dropout(p=0.0, inplace=False)
              )
              (ls2): Identity()
              (drop_path2): Identity()
            )
            (10): Block(
              (norm1): LayerNorm((768,), eps=1e-06, elementwise_affine=True)
              (attn): Attention(
                (qkv): lora.Linear(
                  (base_layer): Linear(in_features=768, out_features=2304, bias=True)
                  (lora_dropout): ModuleDict(
                    (default): Dropout(p=0.1, inplace=False)
                  )
                  (lora_A): ModuleDict(
                    (default): Linear(in_features=768, out_features=8, bias=False)
                  )
                  (lora_B): ModuleDict(
                    (default): Linear(in_features=8, out_features=2304, bias=False)
                  )
                  (lora_embedding_A): ParameterDict()
                  (lora_embedding_B): ParameterDict()
                  (lora_magnitude_vector): ModuleDict()
                )
                (q_norm): Identity()
                (k_norm): Identity()
                (attn_drop): Dropout(p=0.0, inplace=False)
                (proj): lora.Linear(
                  (base_layer): Linear(in_features=768, out_features=768, bias=True)
                  (lora_dropout): ModuleDict(
                    (default): Dropout(p=0.1, inplace=False)
                  )
                  (lora_A): ModuleDict(
                    (default): Linear(in_features=768, out_features=8, bias=False)
                  )
                  (lora_B): ModuleDict(
                    (default): Linear(in_features=8, out_features=768, bias=False)
                  )
                  (lora_embedding_A): ParameterDict()
                  (lora_embedding_B): ParameterDict()
                  (lora_magnitude_vector): ModuleDict()
                )
                (proj_drop): Dropout(p=0.0, inplace=False)
              )
              (ls1): Identity()
              (drop_path1): Identity()
              (norm2): LayerNorm((768,), eps=1e-06, elementwise_affine=True)
              (mlp): Mlp(
                (fc1): Linear(in_features=768, out_features=3072, bias=True)
                (act): GELU(approximate='none')
                (drop1): Dropout(p=0.0, inplace=False)
                (norm): Identity()
                (fc2): Linear(in_features=3072, out_features=768, bias=True)
                (drop2): Dropout(p=0.0, inplace=False)
              )
              (ls2): Identity()
              (drop_path2): Identity()
            )
            (11): Block(
              (norm1): LayerNorm((768,), eps=1e-06, elementwise_affine=True)
              (attn): Attention(
                (qkv): lora.Linear(
                  (base_layer): Linear(in_features=768, out_features=2304, bias=True)
                  (lora_dropout): ModuleDict(
                    (default): Dropout(p=0.1, inplace=False)
                  )
                  (lora_A): ModuleDict(
                    (default): Linear(in_features=768, out_features=8, bias=False)
                  )
                  (lora_B): ModuleDict(
                    (default): Linear(in_features=8, out_features=2304, bias=False)
                  )
                  (lora_embedding_A): ParameterDict()
                  (lora_embedding_B): ParameterDict()
                  (lora_magnitude_vector): ModuleDict()
                )
                (q_norm): Identity()
                (k_norm): Identity()
                (attn_drop): Dropout(p=0.0, inplace=False)
                (proj): lora.Linear(
                  (base_layer): Linear(in_features=768, out_features=768, bias=True)
                  (lora_dropout): ModuleDict(
                    (default): Dropout(p=0.1, inplace=False)
                  )
                  (lora_A): ModuleDict(
                    (default): Linear(in_features=768, out_features=8, bias=False)
                  )
                  (lora_B): ModuleDict(
                    (default): Linear(in_features=8, out_features=768, bias=False)
                  )
                  (lora_embedding_A): ParameterDict()
                  (lora_embedding_B): ParameterDict()
                  (lora_magnitude_vector): ModuleDict()
                )
                (proj_drop): Dropout(p=0.0, inplace=False)
              )
              (ls1): Identity()
              (drop_path1): Identity()
              (norm2): LayerNorm((768,), eps=1e-06, elementwise_affine=True)
              (mlp): Mlp(
                (fc1): Linear(in_features=768, out_features=3072, bias=True)
                (act): GELU(approximate='none')
                (drop1): Dropout(p=0.0, inplace=False)
                (norm): Identity()
                (fc2): Linear(in_features=3072, out_features=768, bias=True)
                (drop2): Dropout(p=0.0, inplace=False)
              )
              (ls2): Identity()
              (drop_path2): Identity()
            )
          )
          (norm): LayerNorm((768,), eps=1e-06, elementwise_affine=True)
          (fc_norm): Identity()
          (head_drop): Dropout(p=0.0, inplace=False)
          (head): Identity()
        )
        (attn_pool_contrast): AttentionalPooler(
          (attn): MultiheadAttention(
            (out_proj): NonDynamicallyQuantizableLinear(in_features=512, out_features=512, bias=True)
          )
          (ln_q): LayerNorm((512,), eps=1e-05, elementwise_affine=True)
          (ln_k): LayerNorm((768,), eps=1e-05, elementwise_affine=True)
        )
        (ln_contrast): LayerNorm((512,), eps=1e-05, elementwise_affine=True)
        (head): Sequential()
        (attn_pool_caption): AttentionalPooler(
          (attn): MultiheadAttention(
            (out_proj): NonDynamicallyQuantizableLinear(in_features=768, out_features=768, bias=True)
          )
          (ln_q): LayerNorm((768,), eps=1e-05, elementwise_affine=True)
          (ln_k): LayerNorm((768,), eps=1e-05, elementwise_affine=True)
        )
        (ln_caption): LayerNorm((768,), eps=1e-05, elementwise_affine=True)
      )
      (text_decoder): MultimodalTransformer(
        (resblocks): ModuleList(
          (0-11): 12 x ResidualAttentionBlock(
            (ln_1): LayerNorm((768,), eps=1e-05, elementwise_affine=True)
            (attn): MultiheadAttention(
              (out_proj): NonDynamicallyQuantizableLinear(in_features=768, out_features=768, bias=True)
            )
            (ls_1): Identity()
            (ln_2): LayerNorm((768,), eps=1e-05, elementwise_affine=True)
            (mlp): Sequential(
              (c_fc): Linear(in_features=768, out_features=3072, bias=True)
              (gelu): GELU(approximate='none')
              (c_proj): Linear(in_features=3072, out_features=768, bias=True)
            )
            (ls_2): Identity()
          )
        )
        (cross_attn): ModuleList(
          (0-11): 12 x ResidualAttentionBlock(
            (ln_1): LayerNorm((768,), eps=1e-05, elementwise_affine=True)
            (attn): MultiheadAttention(
              (out_proj): NonDynamicallyQuantizableLinear(in_features=768, out_features=768, bias=True)
            )
            (ls_1): Identity()
            (ln_1_kv): LayerNorm((768,), eps=1e-05, elementwise_affine=True)
            (ln_2): LayerNorm((768,), eps=1e-05, elementwise_affine=True)
            (mlp): Sequential(
              (c_fc): Linear(in_features=768, out_features=3072, bias=True)
              (gelu): GELU(approximate='none')
              (c_proj): Linear(in_features=3072, out_features=768, bias=True)
            )
            (ls_2): Identity()
          )
        )
        (ln_final): LayerNorm((768,), eps=1e-05, elementwise_affine=True)
      )
    )
  )
)
Total number of parameters: 395235841
Total number of trainable parameters: 454656
[setup] loss: a popular PLE loss in coxph
downsample [1. 1.]
downsampled_level_dim [35856 46200]
level_dim [35856 46200]
name TCGA-55-8299-01Z-00-DX1.6F652EC5-EBB8-499C-A66D-E0951FBFCAA2
patch_level 0
patch_size 3584
save_path /work/u6658716/TCGA-LUAD/CLAM/PATCHES/New_LUAD/tiles-5x-s448/patches
…
